gps_models/gps_model_lstm_5.0s.pt (torch, 824096 bytes, 10 tensors)

lstm.weight_ih_l0 f4 [512, 12]
0.011065518 0.06390957 0.09867963 0.03174241 0.02274739 -0.116081394 -0.0087257 -0.0067802444
-0.01754608 0.021801963 -0.08545599 0.0050572287 -0.005009986 0.15918283 -0.103917554 0.054736447
-0.039207894 -0.025391767 -0.065336294 0.027193755 0.014134735 -0.027198192 0.0029927492 0.06246338
-0.06568726 0.05480636 -0.03537448 -0.035815492 -0.113153085 -0.06316886 -0.09436686 -0.07132991
-0.005371429 0.00014651567 0.010405362 0.0111293495 -0.038896415 -0.057893317 -0.11447119 -0.04241635
-0.052383143 -0.016807633 0.054656424 0.022179022 0.019984625 -0.024924643 -0.046422362 -0.03268409
0.112784915 -0.05737961 0.008655626 -0.0004498268 0.03440198 0.0483854 0.07729586 0.048907407
0.06628177 -0.035787605 0.08151718 -0.0503172 0.039990183 0.027371839 -0.028077252 -0.07880478
0.036212794 -0.07668042 0.04760978 -0.016770102 -0.02804919 0.020211741 0.07585838 -0.07670611
-0.030797161 0.0031334094 -0.08817591 -0.0038806198 -0.21009997 0.024043564 -0.11573502 0.030074239
0.08719034 0.033661857 0.027285956 0.054289065 0.07443027 0.018848442 -0.036328543 -0.13214941
-0.07140345 -0.09766971 0.0010199788 -0.06352928 -0.079285055 0.08644631 -0.013027288 -0.046985224
0.06096181 0.008725955 -0.06684067 0.011933442 0.060688566 -0.10378163 -0.11131783 -0.046683587
0.08653637 0.008920379 -0.034048963 0.058447666 0.16101739 -0.07462957 0.06738115 -0.029469134
-0.08544227 0.073547475 -0.11026097 -0.075063705 0.006992027 -0.05372707 -0.040153522 0.0010283733
0.047928236 0.029542295 -0.14572783 0.041553974 -0.041820668 0.049384713 -0.07359843 -0.07056345
-0.020913392 -0.03309072 0.03145215 0.07308818 0.03641628 -0.00042928368 -0.059538793 -0.01648713
-0.043635376 0.066214405 -0.027943017 -0.08530876 -0.03916931 0.021749541 -0.04380773 0.047340468
0.012492573 -0.060106866 -0.011940986 -0.07714905 0.09846314 0.007471749 -0.07336379 0.06775623
0.0231217 -0.0010821745 0.063240685 -0.07833485 0.040486142 -0.046048157 -0.0032971252 0.05209032
0.053876113 0.019412877 0.064636044 -0.043598186 -0.07965843 -0.043997504 0.044708423 -0.0496498
-0.032641146 0.11938347 -0.04770461 0.008942566 0.01819633 0.0054716384 0.016078891 -0.0817194
-0.057314012 -0.042210143 -0.015769549 -0.041973 -0.06355833 -0.062350947 0.077734366 0.036748093
0.015896063 0.03380181 0.03229954 -0.011901729 0.0044041574 0.065297104 0.056101047 0.007079991
0.08094061 0.04252065 0.04306441 0.13793609 0.07111998 0.0080634 -0.015046413 -0.075922824
0.032431155 0.026875645 0.06681765 -0.114558145 -0.053127322 0.08959371 -0.012358773 -0.11369267
-0.046369784 0.09442759 -0.003259003 0.06278058 0.0058756843 0.0068242773 -0.0049756765 -0.0007697513
0.04902415 -0.06844961 0.042980623 0.030876517 -0.10681744 -0.086474255 -0.09793218 -0.013767965
-0.02334413 -0.039125815 0.004706189 0.030353503 0.034508366 0.06132835 0.076759934 -0.06642022
-0.092498355 0.052398887 -0.027544912 0.0017963201 -0.019595422 0.04336246 0.004845947 0.055996876
-0.046889637 0.017233923 -0.058609523 0.13322982 -0.0517219 0.09375281 0.06149411 -0.016490638
-0.05689933 -0.07386866 -0.07953265 0.017899599 -0.014079512 0.09824383 -0.050154775 0.033532817
00000000: 254c 353c 05e3 823d 8c18 ca3d 5404 023d
00000010: bc58 ba3c 15bc edbd 3df6 0ebc d02c debb
00000020: ccbc 8fbc 089a b23c 8d03 afbd 1cb7 a53b
00000030: cf2a a4bb d300 233e bad2 d4bd 5333 603d
00000040: 7598 20bd 6502 d0bc 09cf 85bd 70c5 de3c
00000050: 6095 673c bece debc 0022 443b 9ad9 7f3d
00000060: 0b87 86bd a27c 603d d5e4 10bd 44b3 12bd
00000070: cebc e7bd ad5e 81bd 6a43 c1bd 6a15 92bd
00000080: d002 b0bb 00a2 1939 407b 2a3c e057 363c
00000090: d951 1fbd 8b21 6dbd df6f eabd c4bc 2dbd
000000a0: b58f 56bd 29b0 89bc 6adf 5f3d c8b0 b53c
000000b0: ccb6 a33c c42e ccbc 6025 3ebd c1df 05bd
000000c0: c7fb e63d e206 6bbd 54d0 0d3c bbd6 ebb9
000000d0: 17e9 0c3d c52f 463d 4b4d 9e3d 2253 483d
000000e0: bdbe 873d 0696 12bd 7bf2 a63d 6919 4ebd
000000f0: bfcc 233d e83a e03c 4402 e6bc 6764 a1bd
00000100: de53 143d a00a 9dbd 7902 433d 7461 89bc
00000110: 6ac7 e5bc 1893 a53c a35b 9b3d 1818 9dbd
00000120: 544a fcbc e359 4d3b 9295 b4bd ff51 7ebb
00000130: 7224 57be 02f7 c43c 7b06 edbd 405e f63c
00000140: d990 b23d 04e1 093d cc86 df3c 365e 5e3d
00000150: e66e 983d 0c68 9a3c 3dcd 14bd 2d52 07be
00000160: f93b 92bd 0f07 c8bd cfb0 853a a41b 82bd
00000170: 3460 a2bd c30a b13d 6870 55bc 9473 40bd
00000180: 17b3 793d 4ff7 0e3c c3e3 88bd 7c84 433c
00000190: 9394 783d 778b d4bd 9afa e3bd 4a37 3fbd
000001a0: fb39 b13d c826 123c ed76 0bbd d266 6f3d
000001b0: bee1 243e 63d7 98bd 21ff 893d 4169 f1bc
000001c0: 5bfc aebd 0fa0 963d 81d0 e1bd 00bb 99bd
000001d0: 601d e53b eb10 5cbd 0578 24bd 7bca 863a
000001e0: 6650 443d af02 f23c ad39 15be 8034 2a3d
000001f0: 264c 2bbd a047 4a3d c6ba 96bd 9283 90bd
00000200: 9052 abbc 238a 07bd f8d3 003d 41af 953d
00000210: 3d29 153d 7b11 e1b9 f3de 73bd 0510 87bc
00000220: 02bb 32bd 6b9b 873d c1e8 e4bc 5cb6 aebd
00000230: 0070 20bd 182c b23c bc6f 33bd 14e8 413d
00000240: a6ad 4c3c 9e32 76bd 20a4 43bc 5200 9ebd
00000250: 0ba7 c93d 93d5 f43b c13f 96bd c7c3 8a3d
00000260: b869 bd3c c0d7 8dba 5584 813d 066e a0bd
00000270: ccd4 253d fe9c 3cbd 9514 58bb a95c 553d
00000280: 33ad 5c3d c107 9f3c e75f 843d 0394 32bd
00000290: f523 a3bd ba36 34bd 2e20 373d 975d 4bbd
000002a0: b9b2 05bd 527f f43d e965 43bd d783 123c
000002b0: 7810 953c 6e4b b33b e1b7 833c 805c a7bd
000002c0: 19c2 6abd 8be4 2cbd 242f 81bc e1eb 2bbd
000002d0: df2a 82bd b563 7fbd 3233 9f3d 2b85 163d
000002e0: 7638 823c c473 0a3d 864c 043d 78ff 42bc
000002f0: c050 903b 7dba 853d 36ca 653d 45ff e73b
00000300: 31c4 a53d 222a 2e3d 4f64 303d 1e3f 0d3e
00000310: 5aa7 913d 5a1c 043c 3b85 76bc 6d7d 9bbd
00000320: 88d6 043d 502a dc3c b1d7 883d 769d eabd
00000330: 099c 59bd e87c b73d 737c 4abc b4d7 e8bd
00000340: 3eee 3dbd 4163 c13d ff94 55bb 1b93 803d
00000350: d088 c03b 309e df3b 000b a3bb 23c9 49ba
00000360: 8ccd 483d 4f2f 8cbd 730c 303d c0f0 fc3c
00000370: 1ac3 dabd 6a19 b1bd ab90 c8bd 0893 61bc
00000380: 303c bfbc 6442 20bd 6036 9a3b e9a7 f83c
00000390: a558 0d3d 7033 7b3d 5034 9d3d 5307 88bd
000003a0: c76f bdbd 37a0 563d dea5 e1bc 8072 eb3a
000003b0: 9486 a0bc d69c 313d c0ca 9e3b fb5c 653d
000003c0: 590f 40bd 282e 8d3c 8a10 70bd 666d 083e
000003d0: 58da 53bd 7901 c03d 3fe1 7b3d 6017 87bc
000003e0: 460f 69bd 7448 97bd 04e2 a2bd 2ea2 923c
000003f0: c1ad 66bc 1034 c93d 186f 4dbd b559 093d

lstm.weight_hh_l0 f4 [512, 128]
0.06362617 -0.0011870785 0.07749311 -0.004586164 -0.053430878 0.015431802 -0.09863262 0.045995835
-0.05980443 -0.09358636 0.0006971657 -0.117931545 0.027940227 0.06378673 0.023712104 0.10846699
0.100985765 -0.040526368 -0.071320444 -0.067909926 -0.10460382 -0.07829987 -0.014154537 0.057657
0.020532627 -0.06106684 0.029027807 0.023195375 0.08644681 -0.027082577 0.042636514 0.08432763
-0.05128416 -0.016213438 -0.10391863 0.045097575 0.041110415 -0.042808015 0.00549746 0.020844596
-0.07129211 -0.060175247 0.06640591 -0.06486981 0.06124351 -0.14667828 0.11555261 0.1018659
0.024003068 -0.10205229 -0.03535819 0.088111 0.076798126 0.05235224 0.043275498 0.008579616
0.07656533 0.10955287 0.039028484 0.003445914 -0.0021485128 0.019714195 0.05432543 0.0823424
-0.11305272 0.06948223 0.009776712 0.0402157 0.047078025 -0.034674644 0.031209676 0.004291964
-0.01964261 -0.08772565 -0.057183117 -0.019445924 0.052824136 -0.09278914 0.08635529 -0.05306377
0.03117988 0.09519547 0.0905871 -0.056049407 -0.064931504 -0.018606627 0.051732298 0.0059460276
-0.08265328 -0.021638975 0.07673751 0.021977019 0.04594337 -0.040034458 0.07060547 -0.06496861
-0.029979574 0.023539511 -0.017161222 0.056413647 0.031527944 0.04280821 -0.05563744 -0.13738124
0.02450365 0.06531006 0.019492146 0.04521421 -0.10854605 0.062323302 -0.059059925 -0.07645944
0.004500248 0.06816347 -0.06721688 -0.040995505 0.1193384 0.057452045 -0.1029055 -0.020517798
-0.0012764907 0.071774125 0.051486656 -0.055867944 0.031582292 0.06948177 -0.054853544 -0.09488728
-0.06077882 -0.028725803 0.004832139 0.101003215 -0.015146589 -0.05504671 -0.019062335 -0.052896906
-0.053909834 0.03238897 0.12169276 -0.017452832 -0.01864618 -0.022750393 0.0032166466 -0.035007354
0.037188973 -0.046493046 -0.03022122 -0.12596126 0.022783931 0.0127997175 0.04286728 0.051514655
0.029522706 -0.0039821034 -0.08933395 -0.08120868 0.04068864 -0.022956876 0.024766155 0.03857834
-0.028560983 0.09657482 -0.064985625 -0.06302943 -0.0483667 0.03829399 -0.10883359 -0.0816724
-0.12633276 -0.025262821 -0.008886221 -0.09108096 0.029595299 0.11205351 -0.07738361 0.0076829074
-0.0039667776 -0.06609285 0.059556648 -0.15616354 -0.034136865 -0.10861008 -0.12406878 0.041427553
0.030154822 -0.071478754 0.084595785 -0.08394406 0.14075668 0.045732625 -0.08347095 0.017328035
0.06106972 -0.058335 0.07420592 0.067718744 0.04450166 0.04634746 -0.10273037 -0.052048087
-0.096226424 -0.060314436 -0.09376267 -0.04673442 -0.022785345 -0.001818871 0.08845563 0.09344841
0.055797864 -0.05769485 -0.12695977 -0.109693035 -0.057633176 0.028377766 -0.0025050077 0.07985149
0.020334944 0.028613178 -0.028585084 0.05685775 -0.01061899 -0.1288989 -0.08231744 0.01754931
-0.073978744 0.10802293 -0.022147942 -0.025091818 0.15174668 -0.062075987 0.0041706236 0.08493658
-0.03253522 -0.031018909 0.031151965 0.00314394 -0.0044941064 -0.025746398 -0.09127233 -0.02215415
-0.098974854 -0.0799908 0.102478415 0.06902013 -0.115140416 -0.12198483 0.0004172012 0.0010365136
-0.03411352 -0.10407606 -0.098497026 0.122243956 -0.0584008 0.08222543 0.080545165 -0.07002513
00000000: 704e 823d bf97 9bba b5b4 9e3d 8847 96bb
00000010: 56da 5abd abd5 7c3c e6ff c9bd 2166 3c3d
00000020: 7df5 74bd 35aa bfbd 00c2 363a 1886 f1bd
00000030: e7e2 e43c 9ea2 823d e33f c23c f123 de3d
00000040: a0d1 ce3d fafe 25bd 7410 92bd 5c14 8bbd
00000050: 873a d6bd af5b a0bd 6ee8 67bc bf29 6c3d
00000060: 0a34 a83c 3921 7abd b9cb ed3c 3a04 be3c
00000070: 060b b13d 48dc ddbc a0a3 2e3d f7b3 ac3d
00000080: 570f 52bd 0bd2 84bc 4ad3 d4bd 3cb8 383d
00000090: 6563 283d 7557 2fbd 0924 b43b 49c2 aa3c
000000a0: 9901 92bd 527a 76bd d2ff 873d 77da 84bd
000000b0: 7ada 7a3d d532 16be d9a6 ec3d 129f d03d
000000c0: 15a2 c43c cb00 d1bd c0d3 10bd 8a73 b43d
000000d0: 5648 9d3d 4d6f 563d a641 313d 8591 0c3c
000000e0: 49ce 9c3d 415d e03d 55dc 1f3d d8d4 613b
000000f0: 10ce 0cbb aa7f a13c 5884 5e3d 22a3 a83d
00000100: 2f88 e7bd b34c 8e3d 812e 203c 38b9 243d
00000110: e3d4 403d 0007 0ebd 6fab ff3c 9ba3 8c3b
00000120: 8ae9 a0bc 81a9 b3bd d838 6abd 0f4d 9fbc
00000130: 1f5e 583d 3c08 bebd 0bdb b03d 6559 59bd
00000140: f36c ff3c d8f5 c23d bb85 b93d 1094 65bd
00000150: cffa 84bd ed6c 98bc 3fe5 533d e5d6 c23b
00000160: 1f46 a9bd 3844 b1bc 8e28 9d3d 2609 b43c
00000170: 1d2f 3c3d 2cfb 23bd 9a99 903d 430e 85bd
00000180: b997 f5bc efd5 c03c b195 8cbc ff11 673d
00000190: 7223 013d a957 2f3d 16e4 63bd abad 0cbe
000001a0: e1bb c83c 48c1 853d fead 9f3c 8932 393d
000001b0: 644d debd b846 7f3d d2e8 71bd c496 9cbd
000001c0: d176 933b 4a99 8b3d 01a9 89bd e7ea 27bd
000001d0: b167 f43d d652 6b3d 1ec0 d2bd f114 a8bc
000001e0: ec4f a7ba 50fe 923d ace3 523d c9d5 64bd
000001f0: 6f5c 013d 754c 8e3d 1cae 60bd 4354 c2bd
00000200: 36f3 78bd 6052 ebbc eb56 9e3b c6da ce3d
00000210: 6629 78bc a978 61bd 9d28 9cbc 6daa 58bd
00000220: 8fd0 5cbd 4caa 043d 0e3a f93d 3ef9 8ebc
00000230: e0bf 98bc 085f babc 60ce 523b df63 0fbd
00000240: 7753 183d 7e6f 3ebd 7e92 f7bc fdfb 00be
00000250: 5ea5 ba3c e8b5 513c 9a95 2f3d 0801 533d
00000260: 9ad9 f13c 4e7c 82bb b8f4 b6bd bd50 a6bd
00000270: 22a9 263d 0f10 bcbc 64e2 ca3c 5204 1e3d
00000280: b9f8 e9bc 05c9 c53d 2f17 85bd 9315 81bd
00000290: 291c 46bd 29da 1c3d 25e4 debd dc43 a7bd
000002a0: 605d 01be faf3 cebc 8397 11bc a888 babd
000002b0: d771 f23c 507c e53d 4c7b 9ebd e6c0 fb3b
000002c0: befb 81bb b05b 87bd acf1 733d 56e9 1fbe
000002d0: 19d3 0bbd f66e debd c617 febd f0af 293d
000002e0: 3f07 f73c 7463 92bd 8e40 ad3d ddea abbd
000002f0: 8522 103e 2252 3b3d d1f2 aabd 86f3 8d3c
00000300: 3e24 7a3d aef0 6ebd 46f9 973d 20b0 8a3d
00000310: 5f47 363d d6d6 3d3d 4d64 d2bd 6030 55bd
00000320: 5c12 c5bd 450c 77bd a506 c0bd 976c 3fbd
00000330: 55a8 babc 2f67 eeba 3a28 b53d e161 bf3d
00000340: 4d8c 643d 6f51 6cbd be01 02be bea6 e0bd
00000350: c410 6cbd 7d78 e83c 0e2b 24bb 2e89 a33d
00000360: 7895 a63c 2f66 ea3c 442b eabc ace3 683d
00000370: 46fb 2dbc 13fe 03be 0c96 a8bd 92c3 8f3c
00000380: 2b82 97bd 203b dd3d 9a6f b5bc 5b8d cdbc
00000390: 7b63 1b3e 6443 7ebd baa9 883b 3bf3 ad3d
000003a0: a743 05bd 5e1b febc 6832 ff3c 8f0a 4e3b
000003b0: 4c43 93bb 1cea d2bc fdec babd 9f7c b5bc
000003c0: 54b3 cabd 37d2 a3bd 34e0 d13d 6d5a 8d3d
000003d0: bdce ebbd 2fd3 f9bd ccbb da39 a0db 873a
000003e0: 9eba 0bbd d425 d5bd cfb8 c9bd 0a5b fa3d
000003f0: ad35 6fbd ce65 a83d ddf4 a43d 5669 8fbd

lstm.bias_ih_l0 f4 [512]
-0.024354707 -0.07280181 0.024052188 -0.04024252 0.024423983 -0.0034102395 0.004252813 -0.004181654
-0.03377354 0.04287561 -0.091243505 0.038811572 -0.059594676 0.04745696 -0.04753723 0.023193462
-0.0650899 0.044181943 -0.08266613 -0.07441715 -0.073859945 -0.050664112 -0.028336024 0.0546758
-0.0014265116 0.02738612 -0.012583617 0.0014250025 -0.09051466 0.07333938 -0.048742242 -0.019749744
0.060537443 0.059465636 -0.06595916 0.04084409 0.060728226 0.047910623 0.08054922 0.041185196
0.020633774 0.050321437 0.030207608 -0.11296605 0.055703424 0.013628445 -0.086665355 0.014511389
0.05515254 -0.04050652 -0.051270317 0.06591403 -0.021132732 0.032297917 -0.019384053 0.0150534585
0.03678492 -0.017082319 0.0035231276 -0.08357735 0.06042086 0.07487522 0.025164235 0.0854201
-0.055925906 -0.0028801132 0.033389896 -0.062430345 0.011240613 0.041503564 0.047902882 0.033149295
-0.034383032 -0.101573706 -0.020610362 -0.07462593 0.0010703641 0.005822569 -0.089293435 -0.008157923
0.06272552 0.01800175 -0.06012285 0.027342604 -0.01830149 -0.024427842 -0.0015617454 -0.09581063
0.034486644 -0.08071117 -0.0961174 -0.08893886 0.004675651 0.0042763804 -0.10654647 0.08315565
0.08006722 -0.023064742 -0.07908426 0.041425407 0.002658533 0.0115503175 0.06606122 -0.006451533
0.053845715 -0.0062811044 0.049472693 0.013351651 0.0899733 -0.053625204 -0.095657974 0.027375346
-0.062010102 -0.07919185 -0.023351004 0.09593159 0.038575184 0.055771522 -0.096673794 -0.068435244
-0.032533668 0.03231623 0.017728683 -0.010850262 0.06696818 -0.07689061 8.296734e-05 0.06886256
0.012702206 -0.015053931 -0.050658483 0.025284367 -0.10934631 0.023905473 0.037708454 0.083217785
0.042729735 -0.057744056 -0.07119743 -0.08494872 -0.07342962 -0.005513169 0.07049764 0.017931689
0.038143247 0.038176376 0.0017267661 -0.112579465 -0.0760807 -0.074778594 -0.084548585 0.07255474
-0.057701748 -0.06828034 -0.050691925 -0.05885484 -0.03956606 -0.012895255 5.5055716e-06 -0.04490702
-0.042787205 0.07027449 0.02672834 0.00028843875 0.014747543 -0.08565993 -0.0023672741 -0.043177977
0.049603283 -0.009691352 -0.038459394 -0.11226678 -0.015885834 0.0497398 0.019094529 -0.047775716
0.05892903 0.03242266 0.082700886 0.0021763651 -0.06255685 -0.02126594 -0.05199651 0.05176416
-0.08540432 -0.0925288 -0.09698514 -0.06230746 0.04000516 -0.0102177095 0.0373379 0.027981976
-0.007538707 -0.04216226 -0.030297184 -0.07789651 -0.06936799 0.001723708 0.06682262 0.07964129
-0.013554338 -0.06516359 0.0015465127 0.015422392 0.05820485 -0.054088585 -0.0372369 0.056276906
-0.10371802 -0.006278608 -0.10156222 -0.024977084 -0.012294671 -0.06362697 -0.02195592 -0.07149566
0.04036254 0.018045135 -0.06354112 -0.06427492 0.08623675 0.12514837 -0.017973587 0.020234646
-0.024691327 0.013049523 0.007853976 -0.059204005 0.03989658 -0.06899212 -0.007876716 0.042353112
-0.07123923 0.06090282 -0.012173222 -0.04324391 0.05726072 -0.015539058 0.012699573 -0.050641246
-0.06593988 0.012047642 -0.019040395 -0.053506818 -0.0022324128 -0.1244242 -0.018805198 0.043284576
-0.015901873 -0.041593596 0.07424286 -0.060566097 0.0356932 -0.04097606 -0.074560404 -0.08390143
00000000: 8683 c7bc 1e19 95bd 1809 c53c 57d5 24bd
00000010: ce14 c83c 537e 5fbb 2e5b 8b3b 4206 89bb
00000020: 2056 0abd 569e 2f3d e0dd babd e2f8 1e3d
00000030: 8c19 74bd 3b62 423d 66b6 42bd 3700 be3c
00000040: da4d 85bd 20f8 343d dc4c a9bd 0568 98bd
00000050: e243 97bd 2c85 4fbd f320 e8bc bbf3 5f3d
00000060: c9f9 baba db58 e03c 842b 4ebc 26c7 ba3a
00000070: c05f b9bd f532 963d f2a5 47bd 37ca a1bc
00000080: 1cf6 773d 3d92 733d 9915 87bd 224c 273d
00000090: 29be 783d ee3d 443d fdf6 a43d cfb1 283d
000000a0: 2908 a93c da1d 4e3d f275 f73c bf5a e7bd
000000b0: 4629 643d d749 5f3c 9b7d b1bd 2dc1 6d3c
000000c0: a1e7 613d 2aea 25bd d300 52bd effd 863d
000000d0: 8d1e adbc d24a 043d 4ecb 9ebc c8a2 763c
000000e0: c9ab 163d 38f0 8bbc 46e4 663b 9a2a abbd
000000f0: dd7b 773d 2e58 993d 3a25 ce3c bcf0 ae3d
00000100: 9012 65bd 48c0 3cbb d8c3 083d f6b6 7fbd
00000110: 8c2a 383c a4ff 293d d035 443d 8ec7 073d
00000120: 39d5 0cbd e005 d0bd 10d7 a8bc 7bd5 98bd
00000130: 764b 8c3a 40cb be3b 7adf b6bd cfa8 05bc
00000140: 3d76 803d 6878 933c 6143 76bd 99fd df3c
00000150: 02ed 95bc e61c c8bc 7bb3 ccba 5d38 c4bd
00000160: de41 0d3d e64b a5bd 33d9 c4bd 9425 b6bd
00000170: 3436 993b e120 8c3b 0935 dabd 824d aa3d
00000180: 48fa a33d 45f2 bcbc eef6 a1bd b0ad 293d
00000190: c83a 2e3b 8b3d 3d3c 1b4b 873d 6267 d3bb
000001a0: 538d 5c3d b9d1 cdbb e1a3 4a3d e2c0 5a3c
000001b0: ec43 b83d 1aa6 5bbd 54e8 c3bd 4342 e03c
000001c0: 4efe 7dbd 562f a2bd 9b4a bfbc c877 c43d
000001d0: 0301 1e3d ae70 643d e9fc c5bd c727 8cbd
000001e0: 0642 05bd 065e 043d be3b 913c 4cc5 31bc
000001f0: 9d26 893d d378 9dbd c0fe ad38 d007 8d3d
00000200: ea1c 503c c3a4 76bc 457f 4fbd 2921 cf3c
00000210: f5f0 dfbd 69d5 c33c 2e74 1a3d 166e aa3d
00000220: 6005 2f3d 0885 6cbd f5cf 91bd 98f9 adbd
00000230: 4562 96bd d0a7 b4bb 1161 903d 7ae5 923c
00000240: 183c 1c3d d55e 1c3d a854 e23a 1090 e6bd
00000250: 33d0 9bbd 8525 99bd cf27 adbd 9497 943d
00000260: ab58 6cbd 90d6 8bbd 56a2 4fbd c611 71bd
00000270: 0510 22bd 9f46 53bc 80bc b836 6cf0 37bd
00000280: a341 2fbd 12ec 8f3d 64f5 da3c 9839 9739
00000290: ae9f 713c 796e afbd 4524 1bbb 64db 30bd
000002a0: d02c 4b3d 7ac8 1ebc 9987 1dbd 20ec e5bd
000002b0: 0223 82bc f6bb 4b3d 216c 9c3c 78b0 43bd
000002c0: 915f 713d a0cd 043d 155f a93d 59a1 0e3b
000002d0: ce1d 80bd e935 aebc 4bfa 54bd a806 543d
000002e0: 76e8 aebd bd7f bdbd 25a0 c6bd 1b36 7fbd
000002f0: 73dc 233d 2e68 27bc a0ef 183d 753a e53c
00000300: 4207 f7bb 55b2 2cbd cd31 f8bc 3588 9fbd
00000310: ce10 8ebd 0bee e13a 4cda 883d f91a a33d
00000320: 0413 5ebc 7d74 85bd 5bb4 ca3a 33ae 7c3c
00000330: 3568 6e3d fe8b 5dbd b885 18bd 9d82 663d
00000340: 1d6a d4bd c8bc cdbb daff cfbd be9c ccbc
00000350: 966f 49bc db4e 82bd e7dc b3bc 516c 92bd
00000360: 3153 253d 64d3 933c d921 82bd 92a2 83bd
00000370: e59c b03d e526 003e 583d 93bc 21c3 a53c
00000380: 7745 cabc abcd 553c f7ad 003c e67f 72bd
00000390: 996a 233d be4b 8dbd 570d 01bc 757a 2d3d
000003a0: e0e5 91bd 3c75 793d 3272 47bc 8720 31bd
000003b0: 378a 6a3d 8897 7ebc df11 503c 326d 4fbd
000003c0: 7d0b 87bd 7963 453c 9afa 9bbc f729 5bbd
000003d0: ac4d 12bb 1dd2 febd 5c0d 9abc 2b4b 313d
000003e0: a544 82bc 0c5e 2abd a40c 983d 2814 78bd
000003f0: 0833 123d 83d6 27bd 20b3 98bd 83d4 abbd

lstm.bias_hh_l0 f4 [512]
0.055793107 -0.081882015 0.07204238 -0.02553525 -0.021082954 0.03891127 -0.028536456 -0.034810845
0.021695944 -0.062555045 -0.044362888 -0.088827826 0.05077719 0.03712963 0.01830711 -0.01090895
-0.001168519 0.04395268 -0.027725624 -0.015801786 -0.030851854 -0.08511619 0.009158763 0.025360841
-0.04353693 0.061409052 0.03019973 0.055566665 0.005499206 0.020326432 0.0021781768 -0.07625247
0.0362876 -0.08906848 0.036890317 -0.045661382 0.013970089 -0.08356218 -0.030898832 0.023735708
0.023436127 0.08532594 0.056617122 0.020851556 -0.018996688 -0.07020968 0.04360686 0.013095055
0.08186029 0.016051581 -0.008584162 0.020849077 -0.031965055 0.0015604199 0.039425146 0.017669244
0.013313094 0.032347355 -0.076934926 -0.03504179 -0.06761628 -0.05363907 -0.002997154 0.07166846
-0.017157732 -0.021750418 0.056659415 0.003549905 0.005749476 0.04251673 0.049189612 0.052108392
-0.0450917 -0.043030303 -0.044111907 0.024678549 0.10019386 -0.048823096 -0.06534367 -0.027281879
-0.06291007 -0.04605432 0.010869207 -0.102357656 -0.0396606 -0.06877043 0.0807328 -0.011712
-0.04023016 0.06968469 -0.10218444 -0.021968054 -0.059752956 0.03226849 0.055491205 0.006021433
-0.02390701 -0.0034545937 0.026295457 -0.084099606 0.07933609 -0.077774055 -0.0019700897 -0.04512037
-0.09123822 -0.07804285 0.013387529 -0.020862803 -0.07868883 0.040623493 0.01823867 0.07271621
0.011637542 -0.07947939 -0.039973695 0.011861707 0.04830521 -0.041357875 -0.043344233 -0.04903746
0.084871635 -0.08311325 -0.028597295 -0.013725225 0.09560949 -0.07231251 -0.012162269 -0.051484868
-0.10491326 0.037037667 0.0094518745 -0.027023146 -0.057011407 -0.0140133845 0.09341183 -0.0051149516
-0.024227187 0.059043273 -0.0017317383 0.005832174 0.01891757 -0.061011028 0.06370775 0.025848359
-0.08022416 0.067105606 0.019120475 -0.06800215 0.0131459115 0.0033486837 -0.08010388 -0.023231309
-0.10668537 0.07233789 0.039896727 -0.10315929 0.0023328005 -0.012261887 0.07383332 0.11777052
-0.02939551 0.027392942 0.041099153 -0.082315564 0.021293784 -0.04154311 -0.015848167 0.018539764
-0.04898444 0.08760231 -0.07527912 -0.01147046 -0.089636795 -0.008818264 0.073245645 -0.004426463
-0.07404922 -0.03534745 0.018889822 -0.032400798 0.033049643 0.0463692 -0.081956 0.07458542
0.051857468 0.048054405 0.063936114 -0.09372992 0.004817691 -0.04085084 -0.024652544 0.014884038
-0.049443953 -0.027005047 0.10111662 0.042620856 0.034685653 -0.02348358 -0.0048565757 -0.014337139
0.028058626 0.0021689632 -0.0039832727 0.044244446 -0.038770746 -0.042367883 -0.04553621 0.07445376
-0.0143509675 0.08758587 -0.015853692 0.02548303 0.016984042 0.016020069 0.058936507 -0.0336431
0.0457843 -0.00088517444 -0.06847983 0.014325355 0.008488969 0.042474724 -0.078243665 0.10198432
-0.023563718 0.07905973 -0.1064624 -0.02049735 0.076366946 -0.09283917 -0.013184849 -0.072666235
0.016566532 0.058401637 -0.046217203 -0.085242584 0.08830849 -0.044310153 -0.06926167 0.055205572
-0.012987209 -0.04689162 0.10082636 0.039430235 0.06625957 -0.095268376 0.065084524 -0.059352793
0.019055972 -0.11293427 0.041073047 -0.03994472 0.11903096 -0.09699794 0.06076341 0.01043506
00000000: 5087 643d c2b1 a7bd f58a 933d 4d2f d1bc
00000010: 29b6 acbc 6d61 1f3d 49c5 e9bc d195 0ebd
00000020: b1bb b13c dc1c 80bd dcb5 35bd 5deb b5bd
00000030: befb 4f3d 3d15 183d cbf8 953c 74bb 32bc
00000040: fe28 99ba ba07 343d d920 e3bc bf72 81bc
00000050: 07bd fcbc 6651 aebd a30e 163c 8ac1 cf3c
00000060: c853 32bd 0f88 7b3d 6d65 f73c df99 633d
00000070: af32 b43b 9e83 a63c bebf 0e3b 412a 9cbd
00000080: 4ea2 143d 8969 b6bd 4d1a 173d 6e07 3bbd
00000090: cde2 643c a622 abbd 8c1f fdbc 6371 c23c
000000a0: 1ffd bf3c 5ebf ae3d 5be7 673d e2d0 aa3c
000000b0: f19e 9bbc 18ca 8fbd 1b9d 323d a48c 563c
000000c0: 5ea6 a73d 9b7e 833c 96a4 0cbc afcb aa3c
000000d0: caed 02bd 0187 cc3a 437c 213d 17bf 903c
000000e0: 2a1f 5a3c a97e 043d 0f90 9dbd fb87 0fbd
000000f0: 677a 8abd a4b4 5bbd e66b 44bb eac6 923d
00000100: 5f8e 8cbc ef2d b2bc b413 683d 86a5 683b
00000110: 1a66 bc3b 0626 2e3d 0c7b 493d 9c6f 553d
00000120: 13b2 38bd 8b40 30bd b0ae 34bd ab2a ca3c
00000130: 7032 cd3d bafa 47bd e7d2 85bd 3f7e dfbc
00000140: ffd6 80bd 74a3 3cbd c214 323c e4a0 d1bd
00000150: 2773 22bd 83d7 8cbd 3d57 a53d b0e3 3fbc
00000160: 61c8 24bd d9b6 8e3d 1346 d1bd 59f6 b3bc
00000170: 84bf 74bd f72b 043d bf4a 633d 714f c53b
00000180: a2d8 c3bc 7766 62bb 9269 d73c 6a3c acbd
00000190: f67a a23d 0148 9fbd 9f1c 01bb 23d0 38bd
000001a0: 1bdb babd eed4 9fbd 5e57 5b3c 78e8 aabc
000001b0: 9c27 a1bd d264 263d 4369 953c 3cec 943d
000001c0: 64ab 3e3c 17c6 a2bd 75bb 23bd 9b57 423c
000001d0: afdb 453d e066 29bd b989 31bd 81db 48bd
000001e0: 2ed1 ad3d 4837 aabd e044 eabc c4df 60bc
000001f0: e9ce c33d 9518 94bd 4144 47bc cce1 52bd
00000200: c3dc d6bd cfb4 173d 09dc 1a3c a55f ddbc
00000210: cb84 69bd 6598 65bc b44e bf3d 539b a7bb
00000220: 1878 c6bc 5cd7 713d 7ffb e2ba d21b bf3b
00000230: 05f9 9a3c b3e6 79bd 3579 823d f0bf d33c
00000240: 904c a4bd aa6e 893d 8ba2 9c3c b644 8bbd
00000250: f361 573c 9775 5b3b 810d a4bd 964f bebc
00000260: dc7d dabd e325 943d c06a 233d 2e45 d3bd
00000270: e6e1 183b 15e6 48bc ec35 973d ac31 f13d
00000280: dace f0bc 2a67 e03c 9657 283d 1095 a8bd
00000290: 4d70 ae3c 1c29 2abd 04d4 81bc b4e0 973c
000002a0: e8a3 48bd d768 b33d f02b 9abd 99ee 3bbc
000002b0: 7f93 b7bd 7b7a 10bc d001 963d dd0b 91bb
000002c0: 1ea7 97bd 7dc8 10bd d4be 9a3c b3b6 04bd
000002d0: 105f 073d a1ed 3d3d 8cd8 a7bd 3ec0 983d
000002e0: 7f68 543d b2d4 443d f0f0 823d 79f5 bfbd
000002f0: b9dd 9d3b 3653 27bd 22f4 c9bc 2edc 733c
00000300: be85 4abd b039 ddbc 3b16 cf3d 3593 2e3d
00000310: 8b12 0e3d a360 c0bc e923 9fbb 52e6 6abc
00000320: 34db e53c 2a25 0e3b 1d86 82bb aa39 353d
00000330: 13ce 1ebd f289 2dbd 2d84 3abd 377b 983d
00000340: 5220 6bbc 3860 b33d 9adf 81bc cac1 d03c
00000350: 1e22 8b3c 853c 833c 6867 713d 59cd 09bd
00000360: 5188 3b3d 0d0b 68ba 273f 8cbd e5b4 6a3c
00000370: 5115 0b3c faf9 2d3d 373e a0bd 28dd d03d
00000380: b308 c1bc 11ea a13d f508 dabd 0fea a7bc
00000390: 4666 9c3d 7622 bebd 4405 58bc 09d2 94bd
000003a0: 89b6 873c 8e36 6f3d 404e 3dbd aa93 aebd
000003b0: 15db b43d 907e 35bd 10d9 8dbd 3d1f 623d
000003c0: 4dc8 54bc 6d11 40bd 0d7e ce3d 9981 213d
000003d0: 19b3 873d 111c c3bd 094b 853d ea1b 73bd
000003e0: 451b 9c3c 154a e7bd 363c 283d 139d 23bd
000003f0: 81c6 f33d dba6 c6bd 0ee3 783d d0f7 2a3c

lstm.weight_ih_l1 f4 [512, 128]
-0.07727316 -0.03398716 0.028922616 0.035788804 -0.004062228 0.06590677 0.087984495 0.0033962661
-0.063167065 -0.07358 -0.0398481 0.09393577 -0.10249918 -0.14019346 0.057731614 -0.02551019
-0.0012186272 -0.095299765 0.047876626 -0.02827052 -0.028450662 -0.03901357 -0.07456768 -0.061054137
0.08307897 -0.04192995 -0.06080465 -0.09930119 0.044081945 -0.037409306 -0.066178836 -0.09448746
0.08009329 -0.011265978 0.01912726 0.02702419 -0.059857126 0.0678427 0.013859695 0.1062324
-0.099671714 -0.015608309 -0.061585594 0.043821983 0.018575108 0.043483946 0.04396191 0.0034482174
-0.01954521 -0.06434708 -0.022170018 -0.06782077 0.06213656 0.022749702 0.060877677 0.07264923
-0.0064905225 -0.056625612 -0.028584793 -0.07792 0.0045218184 0.096837215 -0.005568882 0.026758417
-0.021181956 -0.009620145 0.044676878 -0.07605616 -0.0069461707 0.09482835 0.009528596 -0.04799036
0.031274173 -0.0013784468 -0.037144113 -0.09452717 -0.047943942 -0.03103854 -0.104591385 0.057638686
-0.08397696 0.014920696 -0.066576 -0.08669321 0.05146632 -0.055247597 0.0747597 -0.02921481
0.012720176 -0.070814095 0.035645302 0.045286864 0.095417894 -0.11695504 -0.0029029874 0.06500966
0.06457218 -0.060038254 0.033718478 0.039366573 -0.043517273 -0.08365363 0.025469212 0.03629037
-0.049346153 0.032601856 -0.03998889 0.052926034 0.043537643 -0.0027948683 0.036194816 -0.06904268
-0.047259506 -0.060502805 0.007996155 -0.00343503 -0.06470759 -0.014635714 0.14227167 -0.089246556
-0.03332229 -0.04604281 -0.03572892 0.010208211 0.07890775 -0.08456622 0.05243501 0.1160902
0.062306337 0.037650023 0.045061328 -0.050229862 0.060612302 0.054004945 0.022899643 -0.02470899
-0.063264824 -0.038032766 -0.08127194 0.073659785 0.03729595 0.00021804922 -0.06273558 0.0626771
0.05116171 -0.03466759 -0.0660096 0.050443143 -0.06312955 0.04048198 0.03406569 0.051949877
-0.074291706 0.037062243 -0.05810185 -0.025857402 -0.027451161 0.07849236 -0.014061793 0.020382656
-0.05616779 0.10016012 -0.0021315631 0.05370539 0.048706025 0.04501872 -0.018813984 0.111395985
-0.10487083 0.011028097 -0.032811735 0.06310802 -0.042794276 0.050763883 0.06644062 0.056134716
-0.0898595 -0.038184635 -0.039029177 0.06512071 0.022160597 -0.009021184 -0.0059562093 -0.085729115
0.09163061 -0.015900956 0.043323763 -0.031493213 0.046629306 -0.038880605 -0.10167465 -0.03249129
0.08176545 0.0019084917 -0.00984896 -0.00350362 -0.001614978 0.024167748 0.040521078 -0.05219977
-0.07538609 -0.013768516 -0.07132621 0.03932979 -0.0073096408 -0.060259633 -0.068823844 -0.04871681
-0.03130961 0.0051940153 -0.032740563 -0.00027762982 -0.031286675 0.03986981 -0.031004427 0.066444464
-0.1135998 -0.00034135804 0.061668374 0.07475983 0.016348068 0.09338462 -0.05137422 0.096438706
-0.08649608 -0.0367139 -0.004619026 -0.0289914 0.004348757 0.06937183 0.022879234 -0.0892086
0.097140625 0.04625877 -0.102109574 -0.07466906 0.01249191 0.08926908 0.06886187 -0.004788968
0.06275666 -0.012891577 -0.04130312 0.021845106 0.025111716 -0.06821239 0.08996435 0.07360458
0.056616955 -0.04839042 -0.0026913157 -0.0500013 0.006986905 -0.012210252 -0.04481352 0.05829851
00000000: 6441 9ebd 1f36 0bbd 1fef ec3c 4897 123d
00000010: 701c 85bb 21fa 863d 3731 b43d e493 5e3b
00000020: bc5d 81bd 1cb1 96bd c337 23bd 6661 c03d
00000030: 17eb d1bd e08e 0fbe fc77 6c3d bffa d0bc
00000040: 58ba 9fba 862c c3bd 481a 443d 9497 e7bc
00000050: 5d11 e9bc b1cc 1fbd f1b6 98bd e713 7abd
00000060: 4f25 aa3d bdbe 2bbd 4c0e 79bd 6c5e cbbd
00000070: 458f 343d 803a 19bd c588 87bd a482 c1bd
00000080: f307 a43d f094 38bc c6b0 9c3c d661 dd3c
00000090: bf2c 75bd 1df1 8a3d c613 633c 5f90 d93d
000000a0: af20 ccbd feb9 7fbc 2d41 7cbd ae7e 333d
000000b0: d32a 983c 391c 323d 6711 343d 7dfb 613b
000000c0: 471d a0bc 67c8 83bd e69d b5bc 9ee5 8abd
000000d0: e882 7e3d 955d ba3c df5a 793d 1fc9 943d
000000e0: 73ae d4bb 42f0 67bd a82a eabc 8594 9fbd
000000f0: c32b 943b 9752 c63d 2b7b b6bb 7834 db3c
00000100: c885 adbc d09d 1dbc 1aff 363d 55c3 9bbd
00000110: b49c e3bb 5e35 c23d d41d 1c3c 8a91 44bd
00000120: 5919 003d 00ad b4ba 6d24 18bd 7697 c1bd
00000130: de60 44bd 8944 febc 0234 d6bd 8b16 6c3d
00000140: 1dfc abbd ef75 743c ff58 88bd 368c b1bd
00000150: 59ce 523d 4e4b 62bd 9d1b 993d e653 efbc
00000160: 4968 503c fb06 91bd cf00 123d b87e 393d
00000170: 756a c33d 2086 efbd 0c40 3ebb c923 853d
00000180: 6b3e 843d acea 75bd 631c 0a3d d83e 213d
00000190: 2b3f 32bd 9852 abbd cfa4 d03c 36a5 143d
000001a0: 311f 4abd 8689 053d 64cb 23bd f8c8 583d
000001b0: 8754 323d 1c2a 37bb 0441 143d 4066 8dbd
000001c0: 2f93 41bd cad1 77bd 4e02 033c 3e1e 61bb
000001d0: 6a85 84bd a2ca 6fbc aaaf 113e e6c6 b6bd
000001e0: f47c 08bd 6397 3cbd 7d58 12bd 5740 273c
000001f0: 639a a13d 0e31 adbd 18c6 563d b3c0 ed3d
00000200: ee34 7f3d e936 1a3d 3a92 383d d4bd 4dbd
00000210: 9b44 783d 4a34 5d3d 0898 bb3c 826a cabc
00000220: fd90 81bd 3fc8 1bbd e771 a6bd f1da 963d
00000230: a3c3 183d 24a4 6439 837b 80bd da5c 803d
00000240: f18e 513d 9aff 0dbd 0b30 87bd 789d 4e3d
00000250: 114a 81bd 6fd0 253d 7788 0b3d 65c9 543d
00000260: 4026 98bd 94ce 173d 35fc 6dbd e7d2 d3bc
00000270: 42e1 e0bc 9ac0 a03d 6f63 66bc 87f9 a63c
00000280: 3210 66bd c020 cd3d b2b1 0bbb 2ffa 5b3d
00000290: f87f 473d 8d65 383d c91f 9abc 9423 e43d
000002a0: 85c6 d6bd 31af 343c 9965 06bd c73e 813d
000002b0: 0d49 2fbd caed 4f3d 0512 883d 84ed 653d
000002c0: 4208 b8bd 7e67 1cbd 0fdd 1fbd 025e 853d
000002d0: 248a b53c 97cd 13bc 4e2c c3bb bf92 afbd
000002e0: d4a8 bb3d b942 82bc 4274 313d 07ff 00bd
000002f0: 5ffe 3e3d 4541 1fbd cd3a d0bd 9615 05bd
00000300: a574 a73d 5b26 fa3a 885d 21bc fd9c 65bb
00000310: abad d3ba 71fb c53c 6ef9 253d 6dcf 55bd
00000320: 0664 9abd 5795 61bc 7a13 92bd 4618 213d
00000330: b685 efbb ced2 76bd 84f3 8cbd 478b 47bd
00000340: 813e 00bd 8f32 aa3b f81a 06bd d88e 91b9
00000350: 7526 00bd 874e 233d fffc fdbc 0914 883d
00000360: 03a7 e8bd 4df8 b2b9 fa97 7c3d af1b 993d
00000370: 62ec 853c 7040 bf3d c66d 52bd a881 c53d
00000380: db24 b1bd 5061 16bd 335b 97bb 5f7f edbc
00000390: 0580 8e3b d112 8e3d 3b6d bb3c 00b3 b6bd
000003a0: aaf1 c63d d679 3d3d d31e d1bd 18ec 98bd
000003b0: deaa 4c3c b5d2 b63d 7407 8d3d c6ec 9cbb
000003c0: 9086 803d 3137 53bc 762d 29bd 82f4 b23c
000003d0: 16b7 cd3c f0b2 8bbd 3b3f b83d ffbd 963d
000003e0: 2ee7 673d 0835 46bd c960 30bb 2ace 4cbd
000003f0: 68f2 e43b 820d 48bc 628e 37bd 6bca 6e3d

lstm.weight_hh_l1 f4 [512, 128]
0.05205093 0.053632505 -0.013858998 -0.037080888 -0.008613672 -0.028095696 -0.024057927 -0.04037939
-0.005217284 -0.036752306 -0.0026191345 -0.03712893 0.008880537 -0.063747756 0.07760116 -0.008283439
0.05076647 0.030408856 0.003697359 0.039961666 -0.12355347 0.078705095 -0.11637842 0.100190245
-0.043954156 0.008346547 -0.045489077 -0.07033313 0.099588595 0.02708202 0.0449244 -0.023283293
-0.056065075 0.04428024 -0.019130578 -0.0465105 0.036626644 -0.017418506 0.0075927125 -0.10895371
-0.03433452 -0.09203668 -0.028652987 -0.003175846 -0.048982892 -0.09628394 -0.06989897 -0.04000489
0.02146618 -0.0179916 0.016083915 0.061582863 0.009355448 -0.10858786 0.091097094 0.04344332
0.06940151 -0.09968391 -0.020121858 -0.018084634 -0.042647213 -0.06256161 -0.00949418 -0.0028520117
0.083576284 0.0483225 -0.051803146 -0.008894031 -0.03439243 0.020769274 -0.0861466 0.05976234
-0.05645375 0.030968746 0.034142528 0.08569428 -0.040799815 0.09394526 -0.008409951 0.07581714
-0.068893 0.048127692 0.052548878 0.031140897 0.015245657 -0.00014348573 -0.1147958 -0.014165511
-0.02345991 0.08553992 0.02009022 -0.008437509 -0.061167326 0.07887756 -0.06690113 -0.035779703
0.05350435 -0.018839508 0.007634138 0.0806974 -0.025607241 0.019261427 0.07027835 -0.046625577
-0.055703733 0.006548912 -0.08038915 0.05210116 0.06074338 0.06622449 0.023345228 0.043052334
0.12659062 -0.003457921 -0.087166995 0.10968326 -0.013121655 0.036855478 0.09714752 0.016818406
0.017156538 0.04865688 -0.083752684 -0.05405643 -0.023376288 0.10481965 0.0075402544 -0.038548615
-0.07493165 -0.032282207 0.01730423 -0.02513763 0.0023920606 -0.09279332 0.020597572 0.01396563
-0.08115928 0.016413435 -0.09268097 -0.09282708 0.043413717 0.04972417 -0.008629413 -0.066527076
-0.0040253825 -0.061889302 0.015892142 -0.08301124 0.025165182 0.036083978 -0.111875914 -0.036896706
0.026652511 -0.09583458 -0.05594625 0.027045814 0.06716653 -0.059337568 -0.009414237 0.056519046
0.0072629396 0.092683576 -0.07176234 0.054545306 -0.0023257455 -0.0341001 0.026613232 0.05034183
0.015610356 -0.036195975 -0.06565723 0.0019741303 -0.01420716 0.045328617 -0.0783739 -0.07994399
0.040037546 0.024567762 0.014685996 -0.05831381 0.0048419456 -0.057035584 -0.061008498 -0.012959453
-0.050898544 -0.08253384 -0.038139913 0.052973595 -0.017342255 -0.06289134 0.06979839 -0.04196976
0.04980856 -0.010842914 0.032012388 -0.02567883 0.08741002 0.036974385 0.041807625 0.096907295
-0.079119265 -0.039348226 -0.023895927 -0.03523433 0.016979016 -5.1215364e-05 0.03393942 0.11841806
0.01572689 0.00022098556 0.007087383 -0.042852916 0.0724329 0.016521655 -0.08570344 -0.029002346
0.027973412 -0.048126753 -0.095605895 -0.07398435 -0.050299853 0.07729615 0.08107983 0.099660896
0.05456768 -0.061405316 -0.0056814514 0.048667386 -0.06286804 0.058973093 -0.015087365 -0.0050841644
-0.030393772 0.041421406 0.062727004 0.05010529 -0.021699244 0.07990685 -0.029317854 -0.05631631
0.06785374 0.034224015 -0.0017923039 0.023893205 0.007312599 0.045216423 0.017163165 -0.024695033
0.029437605 -0.05130293 -0.101251036 0.01660188 -0.029059092 0.048902504 -0.056372035 -0.06708982
00000000: 5b33 553d c2ad 5b3d da10 63bc 21e2 17bd
00000010: 5c20 0dbc f228 e6bc 2115 c5bc dc64 25bd
00000020: c0f5 aabb 9689 16bd c9a5 2bbb 8114 18bd
00000030: ac7f 113c 2f8e 82bd 5bed 9e3d 43b7 07bc
00000040: 81f0 4f3d fe1b f93c 644f 723b d8ae 233d
00000050: 9a09 fdbd 2330 a13d cf57 eebd 8b30 cd3d
00000060: 4609 34bd f5bf 083c c152 3abd d10a 90bd
00000070: 1bf5 cb3d 1ddb dd3c a602 383d 9bbc bebc
00000080: 7ea4 65bd 325f 353d bbb7 9cbc cb81 3ebd
00000090: d205 163d 41b1 8ebc 4acc f83b 1f23 dfbd
000000a0: 5ba2 0cbd ba7d bcbd abb9 eabc db21 50bb
000000b0: 49a2 48bd 8430 c5bd 3127 8fbd 2bdc 23bd
000000c0: d8d9 af3c 1f63 93bc 6ac2 833c 503e 7c3d
000000d0: 9847 193c 5063 debd 1d91 ba3d 9ff1 313d
000000e0: 6122 8e3d 1427 ccbd 98d6 a4bc 3a26 94bc
000000f0: d8ae 2ebd 4d20 80bd 7a8d 1bbc d1e8 3abb
00000100: 0b2a ab3d d0ed 453d 892f 54bd 45b8 11bc
00000110: 14df 0cbd 5324 aa3c a16d b0bd 5bc9 743d
00000120: 0c3c 67bd 2bb2 fd3c 09d9 0b3d 7c80 af3d
00000130: b51d 27bd 5f66 c03d e4c9 09bc 0446 9b3d
00000140: c617 8dbd 8b21 453d 7e3d 573d 321b ff3c
00000150: ecc8 793c a874 16b9 0f1a ebbd 7616 68bc
00000160: ff2e c0bc 8e2f af3d 3f94 a43c 7a3d 0abc
00000170: 978a 7abd 8f8a a13d 7603 89bd bd8d 12bd
00000180: 6127 5b3d 5055 9abc cb27 fa3b ae44 a53d
00000190: 47c6 d1bc 24ca 9d3c 18ee 8f3d 76fa 3ebd
000001a0: 9929 64bd 4198 d63b 11a3 a4bd 0768 553d
000001b0: 0dce 783d b5a0 873d 7e3e bf3c a557 303d
000001c0: f9a0 013e 4a9e 62bb 9c84 b2bd 9ea1 e03d
000001d0: 36fc 56bc c5f5 163d 47f5 c63d c1c6 893c
000001e0: de8b 8c3c 704c 473d 8786 abbd 466a 5dbd
000001f0: a17f bfbc afab d63d 3d14 f73b 27e5 1dbd
00000200: c475 99bd 593a 04bd 9ac1 8d3c 6eed cdbc
00000210: 1ec4 1c3b 6d0a bebd 3dbc a83c 19d0 643c
00000220: d636 a6bd 7875 863c 85cf bdbd 201c bebd
00000230: 95d2 313d 92ab 4b3d 6262 0dbc 593f 88bd
00000240: 5be7 83bb a37f 7dbd 3d30 823c cc01 aabd
00000250: 3627 ce3c cbcc 133d 331f e5bd 0021 17bd
00000260: 5e56 da3c ec44 c4bd e527 65bd 2f8f dd3c
00000270: 9b8e 893d f30b 73bd 2c3e 1abc 8480 673d
00000280: f4fd ed3b e3d0 bd3d 22f8 92bd e66a 5f3d
00000290: 896b 18bb 8cac 0bbd fe03 da3c 3c33 4e3d
000002a0: 94c2 7f3c 3b42 14bd 4c77 86bd 6960 013b
000002b0: 26c5 68bc 80aa 393d 7f82 a0bd adb9 a3bd
000002c0: 69fe 233d 5542 c93c 889d 703c 76da 6ebd
000002d0: 2fa9 9e3b 259e 69bd 0ce4 79bd e353 54bc
000002e0: fe7a 50bd 8007 a9bd 9938 1cbd d7fa 583d
000002f0: 5811 8ebc 2dcd 80bd 75f2 8e3d 7ce8 2bbd
00000300: 1004 4c3d 7aa6 31bc 6c1f 033d 695c d2bc
00000310: 0604 b33d 7472 173d 793e 2b3d 5577 c63d
00000320: 4809 a2bd 9b2b 21bd 64c1 c3bc df51 10bd
00000330: 9417 8b3c 14d0 56b8 1004 0b3d 2b85 f23d
00000340: aed5 803c 5cb8 6739 473d e83b 8a86 2fbd
00000350: b357 943d 6c58 873c 4985 afbd 5496 edbc
00000360: 7f28 e53c 8f20 45bd 06cd c3bd 1b85 97bd
00000370: 3807 4ebd 724d 9e3d 2f0d a63d 031b cc3d
00000380: 5c82 5f3d 2484 7bbd 782b babb 7457 473d
00000390: f5c0 80bd c58d 713d ff30 77bc 1099 a6bb
000003a0: 5cfc f8bc 7ea9 293d 0477 803d 343b 4d3d
000003b0: 9dc2 b1bc 34a6 a33d ff2b f0bc eeab 66bd
000003c0: e7f6 8a3d 7b2e 0c3d bdeb eaba afbb c33c
000003d0: 879e ef3b db34 393d c499 8c3c 3d4d cabc
000003e0: 2227 f13c 0523 52bd b45c cfbd aa00 883c
000003f0: 550d eebc fe4d 483d 5de6 66bd 6366 89bd

lstm.bias_ih_l1 f4 [512]
-0.079485625 -0.03393817 0.046700805 0.05711401 0.024262255 -0.05945607 0.04290692 0.03768483
-0.06222659 0.005432963 -0.027483324 -0.058158655 -0.0796571 0.0386491 -0.060261093 -0.027713384
-0.104261085 0.02043897 -0.009429292 -0.08432434 -0.11227071 -0.059343603 -0.070499815 0.039528664
-0.09360839 -0.06387536 -0.06072127 -0.008269833 0.052640535 0.008905119 0.06180438 0.06469078
-0.017156903 -0.07563603 -0.08262838 -0.06471225 0.035453524 -0.029318808 0.0135078365 -0.1038128
-0.11626966 -0.074132495 0.055257484 0.07068252 -0.08519435 -0.1312952 -0.092562556 0.04909529
-0.048556965 -0.06261065 0.03602099 0.009496579 -0.03469656 -0.014294631 -0.09812165 0.004729146
-0.053495612 -0.10742783 0.054798447 -0.032329597 0.03315582 0.005528163 -0.021596454 -0.16383858
-0.08483518 -0.114088714 0.02603596 -0.08912879 0.047510386 -0.033818655 -0.049666215 -0.07491494
-0.017502712 -0.06181227 0.04073213 -0.026608441 0.046946533 -0.0955051 0.020983301 -0.009201047
-0.0062704547 0.04991994 -0.027903935 0.04669334 -0.0053687245 0.04451342 -0.09637998 0.025138972
0.049152303 -0.050839968 -0.036642794 0.030584631 -0.0054966095 -0.021861538 0.031854063 -0.029033087
-0.0853986 0.03541945 -0.14017531 0.02044796 -0.044704344 0.038600586 -0.074386686 -0.08482682
-0.04497105 -0.020150654 -0.06735708 0.041063156 -0.0481546 0.056070294 0.038488384 0.02624916
-0.051360697 -0.07061249 -0.10311596 -0.0049172835 0.052894074 0.0014706268 0.01138327 0.011026339
-0.0743689 -0.057671696 -0.07501572 -0.07464496 -0.013179846 -0.012228003 0.039496843 -0.006739397
-0.00023141853 0.010638315 -0.07283206 -0.03709787 0.017299356 -0.07108791 -0.1080484 0.044117913
0.0248597 -0.00073115504 -0.00039914812 -0.0015383327 0.057005264 -0.03865545 0.002434537 0.033374257
-0.052641384 -0.10211687 -0.08277314 0.041370794 0.06554664 0.038566466 -0.106055304 0.0930654
0.034159597 -0.0313654 -0.06402269 0.053564902 -0.03290913 -0.041148897 0.049457375 0.03340956
-0.058074895 -0.09331809 -0.04683991 0.015493382 -0.057362135 0.07070833 -0.08178034 -0.096825816
0.024539625 -0.11553171 0.04412904 -0.004277248 -0.06117294 -0.08431235 -0.005911636 -0.0087004695
0.012736585 0.0033097211 0.0060550366 -0.06764683 -0.036700312 0.058212917 -0.08761469 -0.011252864
-0.070470594 0.05663238 0.039751105 -0.05632211 -0.004160582 -0.11490459 -0.10150928 -0.11983571
-0.08567986 0.049675442 -0.06579715 -0.10015471 0.004939629 -0.07042466 -0.019825943 0.057172857
-0.0579704 -0.05148418 -0.082420446 -0.03087796 -0.07677878 -0.028843656 0.027507942 -0.08713379
-0.018371733 -0.03756025 -0.05183072 -0.08412711 0.0120797 -0.0972375 0.059156492 0.010767306
-0.08529195 -0.07899675 -0.08473991 -0.00788189 -0.11773497 -0.08869303 0.02416855 -0.09319374
0.056301363 -0.010739218 -0.10125204 -0.09711021 -0.0654841 -0.08480578 -0.019878652 -0.045779005
0.0040084803 -0.010221711 -0.09550717 -0.10502464 -0.0140035665 0.020787358 0.01727947 0.026011461
0.033549897 0.028886408 0.0132260425 0.038916197 -0.11001351 -0.07325445 -0.07933468 -0.020027837
0.004253882 0.015735608 -0.012759187 0.0043716966 0.048756737 0.057730947 0.059002247 0.066150725
00000000: 5cc9 a2bd c002 0bbd 5849 3f3d 61f0 693d
00000010: a3c1 c63c 3588 73bd 2bbf 2f3d 695b 1a3d
00000020: 4fe1 7ebd ff06 b23b b524 e1bc c537 6ebd
00000030: 4323 a3bd 854e 1e3d 56d4 76bd 2e07 e3bc
00000040: d686 d5bd a06f a73c 517d 1abc 3db2 acbd
00000050: 30ee e5bd 4712 73bd 3562 90bd cfe8 213d
00000060: c1b5 bfbd 16d1 82bd deb6 78bd 327e 07bc
00000070: 9a9d 573d c7e6 113c 9726 7d3d 9a7c 843d
00000080: a28c 8cbc 10e7 9abd 1139 a9bd db87 84bd
00000090: b737 113d ff2d f0bc f94f 5d3c ce9b d4bd
000000a0: ca1e eebd c7d2 97bd ac55 623d ffc1 903d
000000b0: 607a aebd 4072 06be 7091 bdbd 2518 493d
000000c0: abe3 46bd 033a 80bd bf8a 133d 8a97 1b3c
000000d0: fb1d 0ebd 0734 6abc 01f4 c8bd f4f6 9a3b
000000e0: 371e 5bbd 1f03 dcbd 5674 603d 0a6c 04bd
000000f0: 66ce 073d 9825 b53b 0ceb b0bc 4dc5 27be
00000100: 11be adbd 58a7 e9bd 5e49 d53c 2889 b6bd
00000110: 409a 423d 6e85 0abd cd6e 4bbd 016d 99bd
00000120: d961 8fbc dd2e 7dbd bcd6 263d f2f9 d9bc
00000130: 024b 403d 2e98 c3bd 2ce5 ab3c fdbf 16bc
00000140: 6378 cdbb da78 4c3d cb96 e4bc 8441 3f3d
00000150: 20ec afbb b453 363d de62 c5bd 3ff0 cd3c
00000160: ed53 493d 923d 50bd c116 16bd 9f8c fa3c
00000170: e71c b4bb f816 b3bc 6879 023d ccd6 edbc
00000180: 76e5 aebd fc13 113d 1e8a 0fbe 7b82 a73c
00000190: e71b 37bd a61b 1e3d 0c58 98bd afb9 adbd
000001a0: 9033 38bd fc12 a5bc 82f2 89bd d731 283d
000001b0: c23d 45bd f7a9 653d ffa5 1d3d 7a08 d73c
000001c0: 985f 52bd 489d 90bd 762e d3bd 2a21 a1bb
000001d0: 75a7 583d 0cc2 c03a e580 3a3c d1a7 343c
000001e0: b94e 98bd 2839 6cbd d8a1 99bd 75df 98bd
000001f0: 48f0 57bc f657 48bc 71c7 213d 29d6 dcbb
00000200: f0a8 72b9 544c 2e3c fa28 95bd f0f3 17bd
00000210: 61b7 8d3c 8a96 91bd 7b48 ddbd fcb4 343d
00000220: 92a6 cb3c fcaa 3fba c144 d1b9 e1a1 c9ba
00000230: 5a7e 693d 2d55 1ebd c18c 1f3b 72b3 083d
00000240: 7e9e 57bd a622 d1bd f784 a9bd 6c74 293d
00000250: 513d 863d dff7 1d3d 8633 d9bd 1399 be3d
00000260: efea 0b3d 0179 00bd 541e 83bd df66 5b3d
00000270: b9cb 06bd bf8b 28bd d193 4a3d 76d8 083d
00000280: f1df 6dbd 8e1d bfbd 35db 3fbd f4d7 7d3c
00000290: 8ff4 6abd 87cf 903d 737c a7bd 9d4c c6bd
000002a0: 5307 c93c e49b ecbd a7c0 343d 2828 8cbb
000002b0: 7a90 7abd f4ab acbd 66b6 c1bb 6a8c 0ebc
000002c0: 1cad 503c e8e7 583b 5469 c63b 6c8a 8abd
000002d0: 1153 16bd ab70 6e3d 556f b3bd ef5d 38bc
000002e0: e352 90bd 5bf7 673d 0ed2 223d 03b2 66bd
000002f0: 7e55 88bb 1953 ebbd 19e4 cfbd 6d6c f5bd
00000300: ec78 afbd 7a78 4b3d a8c0 86bd ea1d cdbd
00000310: 9ddc a13b ce3a 90bd 046a a2bc 162e 6a3d
00000320: 5f72 6dbd 13e1 52bd 0dcc a8bd c7f3 fcbc
00000330: 313e 9dbd 8849 ecbc 5658 e13c 3373 b2bd
00000340: 5180 96bc c7d8 19bd 734c 54bd d64a acbd
00000350: efe9 453c 7424 c7bd 144e 723d 5b69 303c
00000360: 8cad aebd 0cc9 a1bd 1e8c adbd 0b23 01bc
00000370: 081f f1bd b1a4 b5bd 1ffd c53c 5cdc bebd
00000380: 429c 663d 8cf3 2fbc 3b5d cfbd b8e1 c6bd
00000390: 871c 86bd a7ae adbd 8ed8 a2bc c482 3bbd
000003a0: 9259 833b f778 27bc 4399 c3bd 2917 d7bd
000003b0: 376f 65bc 404a aa3c ad8d 8d3c fd15 d53c
000003c0: 9e6b 093d 30a3 ec3c 0bb2 583c 9766 1f3d
000003d0: c34e e1bd 6e06 96bd 397a a2bd 6b11 a4bc
000003e0: 2664 8b3b f6e7 803c e90b 51bc 7340 8f3b
000003f0: 25b5 473d 4977 6c3d 57ac 713d 087a 873d
